disc.pth (torch, 971087 bytes, 7 tensors)

disc.0.weight f4 [256, 784]
0	0x3cfce0cb	0.030868908
1	0x3d47d96b	0.04879133
2	0x3d289b28	0.041163594
3	0x3d890015	0.06689469
4	0x3d4136a6	0.047171257
5	0x3d381e49	0.044950757
6	0xbd51a1eb	-0.051179808
7	0x3cb57344	0.02214969
8	0xbca1c649	-0.01974787
9	0x3d01a9ca	0.031656064
10	0x3dd0d57e	0.101969704
11	0x3e17cc98	0.1482414
12	0x3bff718f	0.0077955197
13	0x3dd2fb47	0.103018336
14	0x3d440ac4	0.04786183
15	0x3d479b8f	0.048732337
16	0x3dcc22ac	0.09967551
17	0x3ce84154	0.028351463
18	0x3dd28bf7	0.102806024
19	0x3d806fcf	0.06271326
20	0x3d9610bb	0.0732741
21	0x3dabee55	0.083950676
22	0x3d3c907e	0.046036236
23	0x3d64df77	0.055877175
24	0x3c7e248d	0.015511644
25	0xbd9e8974	-0.07741061
26	0x3bcfe1df	0.0063440646
27	0x3dd7fd98	0.10546416
28	0xbc46f487	-0.012143261
29	0x3cb49ac5	0.022046456
30	0xbcc97eb8	-0.024596557
31	0xbbb71d88	-0.005588237
32	0x3da1e94c	0.07905826
33	0x3c977a79	0.018491017
34	0x3e1e9295	0.15485604
35	0xb9c6f023	-0.0003794442
36	0xbb961177	-0.0045797187
37	0x3d5bbf0d	0.053648997
38	0x3c9c5e78	0.019088015
39	0xbe3688b3	-0.17825584
40	0x3c9eb460	0.019373119
41	0x3d828403	0.063728355
42	0x3bc0acc2	0.0058799693
43	0x3d836557	0.064158134
44	0xbd57f38b	-0.052722495
45	0xbbe557a5	-0.0069989734
46	0x3bb4e3c7	0.0055203172
47	0xbc80255f	-0.01564282
48	0x3d9bbd97	0.07604521
49	0x3da5776b	0.08079418
50	0x3ce31224	0.027718611
51	0x3d2f53df	0.042804595
52	0x3d5d2b8b	0.053996604
53	0x3cefd780	0.029277563
54	0xbdeb4e2f	-0.11489522
55	0x3d1413b7	0.036151614
56	0x3d6e85de	0.058233134
57	0x3dc14687	0.0943728
58	0xbcd4e723	-0.02598912
59	0x3dbad859	0.09123296
60	0x3df742ec	0.12073311
61	0x3dfb1231	0.12259329
62	0x3b4daa82	0.0031382148
63	0xbd68ff24	-0.056883946
64	0x3d803f27	0.06262045
65	0x3e08d37c	0.13361925
66	0xbe00a3e7	-0.12562524
67	0xbd631eb2	-0.055449195
68	0x3c9a2aad	0.018819178
69	0xbe05c42d	-0.13063116
70	0xbe1fd31b	-0.15607874
71	0xbe16524b	-0.1467983
72	0x3ce3f3b7	0.027826173
73	0xbe230998	-0.15921628
74	0xbe71d54f	-0.23616527
75	0x3ddac40e	0.10681926
76	0xbd855fa4	-0.065123826
77	0x3d60dbd3	0.05489714
78	0x3be9e39b	0.0071377284
79	0xbc7098ae	-0.014684839
80	0x3d01fb4c	0.031733796
81	0x3db89e7e	0.09014605
82	0xbd9a70dd	-0.07541058
83	0xbde35864	-0.111008435
84	0xbdce1349	-0.10062272
85	0xbbf66604	-0.0075194854
86	0x3ddc4239	0.107548185
87	0x3bec0de7	0.0072038057
88	0xbc8a6113	-0.016891992
89	0x3c53f074	0.012935746
90	0x3bb7c1d4	0.005607823
91	0x3d4abf8e	0.049499087
92	0xbd44d45f	-0.048054095
93	0x3cb91aba	0.022595752
94	0x3e59e82e	0.21279976
95	0x3e2116b4	0.15731317
96	0x3e5c9b20	0.2154355
97	0x3e9473c6	0.28994578
98	0x3e7581af	0.23975252
99	0x3effe8fb	0.49982437
100	0x3e317d3b	0.17332928
101	0x3ecb0b81	0.39657214
102	0x3ed0e334	0.40798342
103	0x3d93a8aa	0.072099045
104	0x3e577a85	0.21042831
105	0x3d3a6a3d	0.045511473
106	0x3d930825	0.07179288
107	0x3dae4bc6	0.085105464
108	0xbd6ab063	-0.05729712
109	0x3d63a664	0.055578604
110	0x3d9574d5	0.072976746
111	0x3e0095c4	0.12557131
112	0xbcd2c195	-0.025727073
113	0xb62e1280	-2.593879e-06
114	0x3dab9cea	0.08379538
115	0x3cdecdb5	0.027197698
116	0xbc4ca751	-0.012491063
117	0xbb7cfc30	-0.0038602464
118	0xbda634d8	-0.08115548
119	0xbdbfa0e9	-0.09356863
120	0xbe538b47	-0.20658599
121	0xbe82b151	-0.25525907
122	0xbedbddd9	-0.42942694
123	0xbe2a61e0	-0.16638899
124	0xbef4d32d	-0.47817364
125	0xbeaabf75	-0.33349195
126	0xbed06832	-0.40704495
127	0xbf10999f	-0.5648441
128	0xbe866f42	-0.26256758
129	0xbf04ed9c	-0.51925063
130	0xbf1f794c	-0.6229446
131	0xbe9f1e22	-0.31077677
132	0xbdf20637	-0.11817592
133	0xbe6c9bf2	-0.23106363
134	0xbd8c5844	-0.06852773
135	0xbe36e830	-0.1786201
136	0xbdf394d4	-0.11893621
137	0xbdd5c986	-0.10438828
138	0xbd0f58a2	-0.034996636
139	0x3be0a0cd	0.0068551064
140	0x3d192282	0.037386425
141	0xbd6b7149	-0.057481084
142	0x3db73ed3	0.0894753
143	0x3baf8780	0.005356729
144	0xbde728f3	-0.11287107
145	0xbd3c39fb	-0.045953732
146	0x3de4aa3d	0.11165283
147	0xbdea6e69	-0.1144684
148	0x3c50df8f	0.012748613
149	0x3e4808dc	0.1953463
150	0x3d91fc88	0.07128245
151	0xbe1362d6	-0.14393172
152	0x3e87fbbc	0.26559246
153	0x3d9e050f	0.077158086
154	0xbd72d579	-0.059285615
155	0x3f0aabea	0.5416857
156	0xbe7dfb84	-0.24802977
157	0x3f10a3fc	0.5650022
158	0x3e66419c	0.22485965
159	0x3e3f225e	0.18665454
160	0xbeb00010	-0.34375048
161	0xbdcd20cd	-0.10016022
162	0xbe10cfa4	-0.14141709
163	0xbd807338	-0.06271976
164	0x3e1a52b2	0.15070608
165	0x3cc95b25	0.024579594
166	0x3cb20f60	0.021735847
167	0xb9989db4	-0.00029109197
168	0x3dd0c034	0.1019291
169	0xbd2bd09a	-0.041946985
170	0x3cdb1e0c	0.026747726
171	0x3c989838	0.018627271
172	0x3d44d333	0.048052978
173	0xbd5bed90	-0.053693354
174	0xbdfdcd57	-0.12392681
175	0x3e6ad970	0.22934508
176	0xbce85591	-0.028361114
177	0xbe96ed7d	-0.29478064
178	0x3e724a15	0.23661073
179	0xbd83efb1	-0.06442202
180	0xbcfbc66f	-0.030734269
181	0x3e31e909	0.17374052
182	0xbe712bdf	-0.23551892
183	0x3e0c4761	0.13699104
184	0xbd165df6	-0.036710702
185	0xbebc4fe3	-0.367797
186	0xbec57d40	-0.3857212
187	0x3e082534	0.13295442
188	0x3d7ce32f	0.061740097
189	0x3f10ad4a	0.5651442
190	0x3e2ac683	0.16677289
191	0xbdb54554	-0.08851114
192	0xbe74bc96	-0.23900065
193	0x3c938781	0.01800895
194	0x3d20de87	0.03927472
195	0x3c504b16	0.012713214
196	0x3cf38a9a	0.029729176
197	0x3da08ce7	0.07839375
198	0x3c857eb7	0.016295774
199	0x3cd34d62	0.025793735
200	0xbe1aa565	-0.15102156
201	0x3da188d2	0.078874245
202	0xbe02b57c	-0.12764543
203	0xbde35cf5	-0.111017145
204	0x3ed07509	0.4071429
205	0xbd9f623c	-0.077824086
206	0xbe09b7c1	-0.13449003
207	0x3e33d5e7	0.17562066
208	0xbe19c418	-0.1501621
209	0xbdb6c1b0	-0.08923662
210	0xbeaa5122	-0.33265024
211	0xbcaf26f6	-0.021380883
212	0xbe631979	-0.22177686
213	0x3efa6cae	0.4891104
214	0xbdedf937	-0.116197996
215	0xbcc3ed59	-0.023916887
216	0xbed78877	-0.42096302
217	0xbe8211c1	-0.2540417
218	0xbeb2efa6	-0.34948462
219	0xbd48f91f	-0.049065705
220	0xbce3d236	-0.027810197
221	0xbccaaec4	-0.024741538
222	0x3db09d49	0.0862375
223	0x3ccba6b2	0.02485976
224	0x3d2e6c3a	0.04258368
225	0x3d87e120	0.06634736
226	0xbd1bc2d2	-0.038027592
227	0x3c0934a2	0.008374365
228	0xbd52305e	-0.051315658
229	0xbd94bf2f	-0.07263028
230	0x3e26bddb	0.16283362
231	0x3dc6da6e	0.09709631
232	0xbe43b947	-0.19113646
233	0x3ee54b23	0.44783887
234	0xbed859fa	-0.42256147
235	0x3e699e58	0.2281431
236	0xbdfc1081	-0.12307835
237	0x3dc9a33f	0.0984559
238	0x3eb86c42	0.36020094
239	0xbe7ea81a	-0.24868813
240	0x3efba776	0.491512
241	0xbf193a24	-0.5985434
242	0x3e6eb854	0.23312503
243	0x3d60a51c	0.05484496
244	0x3ed172b1	0.40907815
245	0xbda1c7e1	-0.07899452
246	0x3e2c4a89	0.16825308
247	0x3e8d298b	0.27570757
248	0xbd15fb7a	-0.03661678
249	0xbda81d58	-0.08208722
250	0xbd30eeb2	-0.043196388
251	0x3d0f4c38	0.034984797
252	0x3d7ebe3d	0.062193144
253	0x3c8e6036	0.017379861
254	0xbbc10ab2	-0.0058911676
255	0xbcd1693b	-0.025562873

disc.0.bias f4 [256]
0	0x3fecea43	1.8508991
1	0xbf8d262b	-1.1027273
2	0xbf19e156	-0.6010946
3	0x3e41622f	0.1888511
4	0x3fd0d886	1.6316078
5	0xbf67d17f	-0.9055404
6	0xbf1f24bc	-0.6216543
7	0xbf89110c	-1.0708327
8	0xbf95bfa1	-1.1699106
9	0x3ee2f7ef	0.44329783
10	0x3f97f4c7	1.1871575
11	0x3f9e6d2b	1.2377065
12	0x3fe1ab42	1.7630389
13	0x3f8e39cf	1.1111392
14	0x3fe30feb	1.7739233
15	0xbf598fcb	-0.84985036
16	0xbf8c45db	-1.0958818
17	0x3fd690ff	1.6762999
18	0x3fd67643	1.6754841
19	0xbf726d4b	-0.9469802
20	0xbf66b063	-0.90112895
21	0x3f58e831	0.84729296
22	0x3fcd8640	1.6056595
23	0xbee7c0af	-0.45264193
24	0x3cd2ff4a	0.025756497
25	0x3fa4a985	1.2864233
26	0x4000219d	2.0020516
27	0x3fd019ed	1.6257912
28	0x3edf315f	0.43592355
29	0x3fe9e47e	1.8272855
30	0x3f8193d9	1.0123245
31	0x3f627c8a	0.8847128
32	0x3fa1e387	1.2647561
33	0x3fcebadb	1.6150774
34	0xbda16c0b	-0.07881936
35	0x3fcba1a5	1.5908705
36	0xbf6859a8	-0.90761805
37	0x3ec14040	0.3774433
38	0x3f2bc8c9	0.6710325
39	0xbbfbb98d	-0.0076820315
40	0xbe80a735	-0.2512757
41	0xbf713800	-0.94226074
42	0x3f112c2e	0.5670804
43	0xbeacbe43	-0.33738908
44	0xbecba57e	-0.39774698
45	0xbf35f4e5	-0.71076804
46	0x3f15e61b	0.5855424
47	0x3ff65d99	1.9247314
48	0xbfc99f9b	-1.5751833
49	0x3f935555	1.1510416
50	0xbf9ab4d4	-1.2086434
51	0x3ecedd45	0.4040319
52	0x3dd73657	0.105084114
53	0x3f2438c6	0.6414913
54	0x3fdcba66	1.7244384
55	0x3fc92019	1.571292
56	0x3fd0a1a5	1.629933
57	0xbf22ee73	-0.63645095
58	0xbf3f6b26	-0.7477287
59	0xbf282379	-0.65679127
60	0x3ff10e37	1.8832463
61	0x3e07b97f	0.13254355
62	0xbdb88151	-0.0900904
63	0x3fc271e2	1.5191004
64	0xbf3d9c79	-0.74066883
65	0x3f9b57db	1.2136186
66	0x3d69a210	0.05703932
67	0x3f85bac8	1.0447626
68	0xbf8aacbe	-1.0833967
69	0x3eb6358c	0.35587728
70	0x3fc5d031	1.545416
71	0x3ff4fee3	1.9140285
72	0x3f87602d	1.0576226
73	0xbf020e0a	-0.5080267
74	0xbf076bcb	-0.52898854
75	0x3fc3e3e2	1.5303919
76	0x3f0516c9	0.5198789
77	0x3f6c449a	0.9229218
78	0x3e956640	0.29179573
79	0x3f88d613	1.069033
80	0x3ea18a0a	0.31550628
81	0xbf6240ea	-0.883803
82	0x3f03bbea	0.5145861
83	0xbf929dcf	-1.1454409
84	0x3fa193a3	1.262318
85	0xbf812031	-1.0087949
86	0xbf93a80d	-1.153566
87	0x3f70781e	0.93933284
88	0xbfcfb49d	-1.6226994
89	0x3e8d3e8e	0.27586788
90	0x3edbb2e4	0.4290992
91	0xbedd1804	-0.43182385
92	0x3fababff	1.3411864
93	0xbf55daba	-0.83536875
94	0x3fb1d960	1.3894463
95	0xbfa4a46e	-1.286268
96	0x3fe5340a	1.7906506
97	0xbf04693a	-0.51723063
98	0x3f64932c	0.89287066
99	0xbf316050	-0.69287586
100	0x3fa0b72e	1.2555902
101	0x3ff60c55	1.9222513
102	0x3fc75219	1.5571929
103	0x3ff03e0c	1.8768935
104	0x3f3830cb	0.7194945
105	0x3f8487d7	1.0353955
106	0x3dd25d13	0.10271659
107	0xbfaa2bae	-1.329458
108	0xbf52e10f	-0.8237466
109	0xbea6ba06	-0.325638
110	0xbf0e70aa	-0.5564066
111	0x3fa3d829	1.2800342
112	0xbe986cfb	-0.29770645
113	0x3f87eafa	1.0618584
114	0x3e76f0ba	0.24115267
115	0x3fb3aba1	1.4036752
116	0x3fcea40c	1.6143813
117	0xbe982f85	-0.29723755
118	0x3ffa1c80	1.9539948
119	0xbee4c5c9	-0.44682148
120	0x3fde0cdf	1.7347678
121	0x3facd970	1.3503857
122	0xbeaee596	-0.34159535
123	0x3fe9a27d	1.8252712
124	0x3f359c49	0.709416
125	0x3f61fffb	0.8828122
126	0x3f264f18	0.6496444
127	0x3fc99daa	1.575124
128	0xbe6d3cb4	-0.23167688
129	0x3facaa35	1.3489443
130	0xbf5e0e96	-0.86741006
131	0xbd7d6cf0	-0.06187147
132	0x3ffd59c9	1.9793025
133	0xc0024bb1	-2.0358698
134	0xbf391741	-0.7230111
135	0xbf14197c	-0.57851386
136	0x3da5b4f5	0.080911554
137	0x3fceb9d2	1.6150458
138	0xbf9c0860	-1.2190056
139	0x3edf772f	0.43645617
140	0x3fedbc24	1.8573041
141	0xbef25822	-0.47332865
142	0x3ff1a9f5	1.8879992
143	0x3f46eb18	0.77702475
144	0xbfcd576d	-1.6042305
145	0x3cce9968	0.025219634
146	0x3eabe2b9	0.33571413
147	0x3fb8239d	1.4385868
148	0xbf5e59ca	-0.8685576
149	0xbfcb7fac	-1.5898337
150	0xbedefa32	-0.4355026
151	0xbf524584	-0.8213732
152	0xbfa372a2	-1.2769358
153	0xbe8e0bba	-0.27743322
154	0xbf825267	-1.0181397
155	0x3fcaefea	1.5854466
156	0x3f53b330	0.82695293
157	0x3f9e3f9c	1.2363162
158	0xbf0dd91c	-0.5540941
159	0x3ff1de6a	1.8896
160	0x3eb79556	0.35856122
161	0xbf5d457e	-0.8643416
162	0xbf0a47fe	-0.540161
163	0xbf0114d8	-0.5042243
164	0x3febaa2d	1.8411309
165	0x3ffcdd20	1.9754982
166	0xbe5382ae	-0.20655319
167	0xbfd7b0ce	-1.6850832
168	0xbdc051a8	-0.09390575
169	0x3dbc215d	0.09186051
170	0x3f849cd3	1.0360359
171	0x3fba634a	1.4561551
172	0x3fcbe30e	1.5928667
173	0xbecea46b	-0.40359816
174	0xbfa66b2a	-1.3001454
175	0xbf079a77	-0.5297007
176	0x3f1ee450	0.6206713
177	0xbe01037a	-0.12598982
178	0x3ff717a5	1.9304091
179	0xbf0d94be	-0.5530509
180	0x3fbf7da0	1.4960213
181	0x40016ed7	2.0223901
182	0xbf119e65	-0.56882316
183	0xbf364e8a	-0.7121359
184	0xbf922419	-1.1417266
185	0x3ffda5d2	1.9816229
186	0x3fdbc833	1.7170471
187	0xbeac9c61	-0.33713058
188	0x3ff0fc6f	1.8827037
189	0x3fe57d4d	1.7928864
190	0x3dc6c4a5	0.09705476
191	0x3f794489	0.973702
192	0xbf7bb09c	-0.9831636
193	0x3ff5e2cf	1.9209841
194	0x3fed3458	1.8531599
195	0x3fb2bd4e	1.3964021
196	0xbe22bfa4	-0.15893418
197	0xbf6165b9	-0.8804584
198	0x4002e165	2.045007
199	0xbe7f9901	-0.2496071
200	0xbf5fafaa	-0.8737742
201	0xbe063ed3	-0.13109903
202	0x3f880541	1.0626603
203	0x3fe71d49	1.8055812
204	0xbf6223de	-0.8833598
205	0xbf7b962d	-0.98276025
206	0x3ff129aa	1.884084
207	0xbf4f22d2	-0.80912507
208	0x3fe24615	1.7677637
209	0x3f0ef46b	0.558417
210	0xbf37e59a	-0.7183472
211	0xbf1d6886	-0.61487615
212	0x3fb3dbbb	1.4051431
213	0x3fb7b5bf	1.435234
214	0xbf8d900b	-1.1059583
215	0x3fb0e097	1.3818539
216	0x3f17fb66	0.5936798
217	0xbe6fc1d4	-0.23413783
218	0x3ff3ac1e	1.9036901
219	0xbe5a2b02	-0.21305469
220	0x3f585dac	0.8451793
221	0x3f809c47	1.0047692
222	0x3f9b6ab3	1.2141937
223	0x3fe6a9bc	1.8020549
224	0xbf8e20cf	-1.1103762
225	0xbf2c53fb	-0.67315644
226	0xbed9e455	-0.42557016
227	0xbf2986ff	-0.6622161
228	0x3f9829c9	1.1887752
229	0xbeafef4c	-0.34362257
230	0x3fe9ba41	1.8259965
231	0x3ed30298	0.41212916
232	0xbf89dcf3	-1.0770553
233	0x3f0a2355	0.5396016
234	0x3ff6f131	1.9292356
235	0x3f8bf8f9	1.0935355
236	0xbf9c6145	-1.2217184
237	0xbf82d119	-1.0220062
238	0x3fe6a80c	1.8020034
239	0x3ff4a922	1.9114115
240	0x3c142dd6	0.009044131
241	0xbe9e3806	-0.30902117
242	0xbfb8e27f	-1.4444121
243	0xbf977a46	-1.183419
244	0x3ff349bd	1.9006878
245	0xbf45d68c	-0.772805
246	0xbf5cc10a	-0.86232054
247	0xbba73ddf	-0.005103811
248	0xbfcb278f	-1.5871447
249	0x3e7b983f	0.24569796
250	0x3fda021a	1.7031891
251	0x3ff2f0b5	1.8979708
252	0x3fe95693	1.8229545
253	0x3f6de402	0.9292604
254	0xbf6fe3ea	-0.93707144
255	0xbfb7a43b	-1.4346994

disc.2.weight f4 [128, 256]
0	0xbb62b62d	-0.0034593449
1	0xbda42ed0	-0.08016741
2	0xbe405e5a	-0.18785992
3	0x3e123471	0.14277817
4	0x3e4a3642	0.1974726
5	0xbc1baf87	-0.009502298
6	0xbdc6f18f	-0.097140424
7	0xbec98055	-0.39355722
8	0x3d2e5bc5	0.042567987
9	0x3e99a7d3	0.30010852
10	0xbe1592f8	-0.14606845
11	0x3e5ed83e	0.21762177
12	0xbe00ad31	-0.12566067
13	0xbe68daf2	-0.22739771
14	0x3ca88aee	0.02057406
15	0x3e96cf17	0.29454872
16	0xb9e980bf	-0.00044537146
17	0xbe1e3925	-0.15451486
18	0x3e4fe297	0.20301281
19	0xbec03139	-0.37537554
20	0xbdf7e909	-0.12104995
21	0x3d686496	0.05673655
22	0x3d9251e9	0.07144529
23	0x3e48d5c6	0.19612798
24	0x3d16b123	0.036790024
25	0x3e088f08	0.13335812
26	0x3d13a07e	0.03604173
27	0xbd9cddea	-0.07659514
28	0xbe49de69	-0.19713749
29	0x3e002b13	0.12516432
30	0xbb8fe454	-0.0043912325
31	0x3e3d0052	0.18457153
32	0xbe231b44	-0.1592837
33	0x3e22dd4b	0.15904729
34	0xbe9981c5	-0.2998182
35	0x3c7f2b37	0.015574268
36	0xbe150b1b	-0.14555018
37	0xbec4c004	-0.38427746
38	0x3f31eff9	0.69506794
39	0x3da2e0c4	0.07953027
40	0x3dd4abe0	0.10384345
41	0x3da63f63	0.08117559
42	0xbd9004b0	-0.07032144
43	0xbeb1e2d9	-0.34743384
44	0x3ed6d9ac	0.41962945
45	0xbd78667a	-0.060644604
46	0xbc92bd5a	-0.017912555
47	0x3e08387a	0.13302794
48	0xbe04c56a	-0.12965932
49	0xbd68eb06	-0.05686476
50	0xbce59c9c	-0.028028779
51	0xbdd0d0af	-0.10196053
52	0x3d7cf304	0.061755195
53	0x3d61d4d2	0.055134602
54	0x3e505eb7	0.20348631
55	0x3e45d656	0.19320044
56	0x3ca625f3	0.020281767
57	0x3c7096a4	0.014684353
58	0xbe4626c1	-0.19350721
59	0xbdfb4b5e	-0.122702345
60	0x3e823429	0.2543042
61	0xbc00ab88	-0.007853396
62	0x3d52f62d	0.051504303
63	0x3e24ada7	0.16081868
64	0xbd2df77e	-0.042472355
65	0xbc8e1920	-0.017345965
66	0xbb928a6b	-0.004472067
67	0xbc5f97bb	-0.013647015
68	0xbd0eaa7f	-0.034830566
69	0x3e1007c8	0.14065468
70	0x3dbdf135	0.09274522
71	0xbd6f1c40	-0.05837655
72	0xbd4fd721	-0.050742272
73	0x3e319a3c	0.17343992
74	0x3eb02de2	0.34410006
75	0x3e6ee14f	0.23328136
76	0x3d661c35	0.056179244
77	0xbcc0010f	-0.023438005
78	0x3e7ba6c1	0.2457533
79	0x3ebb8924	0.36628067
80	0x3ed5d7c6	0.41766185
81	0xbe946153	-0.28980502
82	0xbdb722e7	-0.08942204
83	0x3e5e4181	0.21704675
84	0x3e29375d	0.16525026
85	0x3de9b02c	0.11410555
86	0xbd580ee5	-0.05274858
87	0x3e1c8f4f	0.15289043
88	0xbc84d60f	-0.016215352
89	0x3e97ab41	0.29622844
90	0x3d0de868	0.034645468
91	0x3c15499e	0.00911179
92	0x3dad2efd	0.08456228
93	0xbe7daa14	-0.24771911
94	0x3d95c519	0.07312984
95	0xbe3521fd	-0.17688747
96	0x3d8fb569	0.07017023
97	0x3e81c5a9	0.25346115
98	0x3dd9874c	0.10621509
99	0x3c30157f	0.010747313
100	0xbbb7c950	-0.005608715
101	0x3df26bef	0.11836993
102	0xbd26f2c1	-0.040758852
103	0x3e33493d	0.17508407
104	0xbdd13f3d	-0.1021714
105	0xbd5deb98	-0.054179758
106	0x3dd933e1	0.10605598
107	0xbcfcb1cf	-0.030846504
108	0xbe7517fc	-0.2393493
109	0x3df34d6f	0.11880004
110	0x3e0dea0f	0.13858818
111	0x3e088529	0.13332047
112	0x3dc6d560	0.09708667
113	0x3e45170b	0.19247071
114	0x3e2d2ec4	0.16912371
115	0xbdd2cd6a	-0.10293086
116	0x3e156436	0.14589009
117	0xbeb40944	-0.3516332
118	0xbd24054c	-0.040044114
119	0xbdb640ab	-0.08899053
120	0x3e2bda1b	0.1678242
121	0x3e066d4d	0.13127632
122	0xbeaa263b	-0.33232293
123	0x3e642698	0.22280347
124	0x3dda8825	0.10670499
125	0x3e412102	0.18860248
126	0xbcce6c3e	-0.025198098
127	0x3e5701bf	0.2099676
128	0x3e7e8e84	0.24859053
129	0x3e1b2c41	0.151536
130	0xbe36dd1a	-0.17857781
131	0x3e47fd5e	0.19530246
132	0x3e221a33	0.15830307
133	0xbee9c908	-0.45661187
134	0xbe3794ba	-0.17927828
135	0x3e2ed525	0.17073496
136	0x3b5efc1c	0.003402478
137	0x3ebcc0e4	0.36865914
138	0xbe8e8b98	-0.27840877
139	0x3f258ba2	0.6466619
140	0x3e20744c	0.15669364
141	0x3d8a56cf	0.06754839
142	0x3e3026e3	0.17202334
143	0xbf05f58e	-0.5232781
144	0x3cbe8c13	0.023260152
145	0xbe4b928b	-0.1988012
146	0x3e4adc73	0.19810657
147	0x3e49547d	0.19661136
148	0x3dd7e656	0.1054198
149	0xbe3ab809	-0.18234266
150	0xbd8ebd8d	-0.06969748
151	0x3dd316f9	0.10307116
152	0xbe55b742	-0.20870689
153	0x3cb38556	0.021914165
154	0xbe4353cd	-0.19074936
155	0x3e909c1f	0.2824411
156	0xbe8506e1	-0.2598181
157	0x3e73174e	0.23739359
158	0x3c1b4bc0	0.009478509
159	0x3d1abd45	0.037778158
160	0xbcc57e8d	-0.024108196
161	0x3e92ead6	0.2869479
162	0x3e8d8dce	0.2764725
163	0x3e00b3e5	0.12568624
164	0x3e8ee69e	0.27910322
165	0xbafa7422	-0.0019108097
166	0x3ca9d6ff	0.020732401
167	0xbee8ecfb	-0.45493302
168	0x3e1420ab	0.14465587
169	0x3e49367d	0.19649692
170	0x3e3aba6d	0.18235178
171	0x3ea49df6	0.32151765
172	0x3d0be57f	0.03415441
173	0xbcee286a	-0.029072005
174	0x3dab3e0e	0.08361445
175	0x3e1a5e01	0.15074922
176	0xbd39ed7f	-0.04539251
177	0xbe471e37	-0.1944512
178	0x3d83ef0e	0.064420804
179	0xbe3295ad	-0.1743991
180	0xbe683c08	-0.2267915
181	0x3e19dc1b	0.1502537
182	0xbe677c54	-0.22606021
183	0xbd255bb2	-0.04037065
184	0x3d942f44	0.07235578
185	0x3e9a60e5	0.3015205
186	0x3d313578	0.043263882
187	0x3d49b94b	0.049248975
188	0x3e302252	0.17200592
189	0x3e13e469	0.144426
190	0x3e4746d4	0.19460613
191	0x3ea83a56	0.32857007
192	0x3e1d12ce	0.15339205
193	0x3e240dff	0.16020964
194	0x3da05a9e	0.07829784
195	0x3d8f89af	0.07008683
196	0x3df75536	0.120767996
197	0x3ec03c94	0.37546217
198	0xbd606ac6	-0.054789327
199	0x3d8df335	0.06931154
200	0x3dc03de7	0.09386807
201	0x3e05159e	0.12996528
202	0x3db9f1af	0.090793006
203	0x3e3a4a83	0.18192486
204	0x3e20fdc2	0.15721801
205	0x3da7748d	0.08176527
206	0x3dcf618e	0.10126029
207	0xbd9de9a1	-0.07710577
208	0x3e23dfc1	0.16003324
209	0xbee040cf	-0.43799445
210	0xbe19772a	-0.14986864
211	0x3e8e8c5e	0.27841467
212	0x3cc76c39	0.024343597
213	0x3d5cbcfd	0.05389117
214	0xbd617681	-0.055044655
215	0x3d9a54cb	0.07535704
216	0xbe30f46f	-0.17280744
217	0xbda17a64	-0.07884672
218	0x3e48aa87	0.19596301
219	0x3e5200e5	0.20508154
220	0x3d30147b	0.04298828
221	0xbe12fd3b	-0.14354412
222	0xbd811234	-0.063023
223	0xbd274a8d	-0.04084258
224	0x3e15a042	0.14611915
225	0x3de40d51	0.111353524
226	0xbe9a87de	-0.30181783
227	0x3e3d7c5e	0.18504474
228	0xbe8116a3	-0.25212583
229	0xbd751611	-0.059835497
230	0x3e03dca1	0.12877132
231	0x3db251db	0.08707019
232	0xbd72c3d1	-0.059268776
233	0xbebad7c1	-0.36492732
234	0x3e252763	0.16128306
235	0xbe563038	-0.20916831
236	0xbdac36d8	-0.08408898
237	0xbe9a5121	-0.3014002
238	0x3e27588c	0.16342372
239	0x3df8814c	0.121340364
240	0x3d3539d8	0.044244617
241	0xbe084de3	-0.13310961
242	0x3e263ee8	0.16234934
243	0x3c04ae3d	0.008098182
244	0x3e91ac67	0.28451845
245	0x3e9cc8a2	0.3062182
246	0xbdd71b3a	-0.1050324
247	0xbe09d344	-0.13459498
248	0xbebe7f2e	-0.37206405
249	0xbd0551df	-0.03254878
250	0x3d8b36a5	0.06797532
251	0x3e4b127a	0.19831267
252	0x3e5bfe2f	0.21483682
253	0x3ecd34ce	0.4007935
254	0xbe43f5ac	-0.19136685
255	0x3d3cba95	0.046076376

disc.2.bias f4 [128]
0	0x3fab37e4	1.3376431
1	0x3fcf68e2	1.6203883
2	0xbed69a6f	-0.41914698
3	0x3f2f5a2f	0.68496984
4	0xbfc82886	-1.5637367
5	0x3e1314e9	0.14363445
6	0x3f8555de	1.041683
7	0xbf8f1aa3	-1.1180004
8	0xbf94caa4	-1.1624341
9	0x3eec4ad6	0.46150845
10	0x3eccb758	0.3998363
11	0xbf4af876	-0.7928537
12	0x3f4d3cee	0.80171096
13	0x3f97679f	1.1828498
14	0x3f0ee750	0.55821705
15	0x3f6dc1b2	0.9287368
16	0x3f425838	0.7591586
17	0x3f589cd9	0.8461433
18	0xbfdfe864	-1.7492795
19	0x3f104f51	0.5637103
20	0x3f3e4795	0.74327976
21	0xbec1fbf0	-0.37887526
22	0x3fa349a2	1.2756846
23	0x3facecee	1.3509805
24	0x3fa17441	1.2613603
25	0x3f9c552e	1.2213495
26	0x3f3ff250	0.74979115
27	0x3fc816dc	1.5631976
28	0x3fab03af	1.3360499
29	0x3f3010a8	0.68775415
30	0x3f56af05	0.8386081
31	0x3fe3d952	1.7800696
32	0x3f851930	1.0398312
33	0x3fd0214d	1.6260163
34	0xbf4581cc	-0.7715118
35	0x3fa2aa28	1.2708178
36	0x3f6dee4c	0.9294174
37	0x3eea634a	0.45778877
38	0xbd1f151d	-0.038838495
39	0xbfb7375d	-1.431377
40	0x3fa03b05	1.2518011
41	0x3e10dc3b	0.14146511
42	0x3f36d806	0.71423376
43	0x3efdfeab	0.4960836
44	0xbebc92e4	-0.3683082
45	0xbfcce151	-1.6006261
46	0x3f595d07	0.84907573
47	0xbf34a7f6	-0.7056879
48	0x3fc3a74d	1.5285431
49	0x3fc30eb8	1.5238867
50	0xbfaff594	-1.374682
51	0x3fba1b68	1.4539614
52	0x3e6a6ce5	0.22893102
53	0x3fd33752	1.6501257
54	0x3f97c587	1.1857156
55	0x3f44af31	0.7682982
56	0x3d54dbd5	0.05196746
57	0xbf90d70f	-1.1315631
58	0x3f68210e	0.9067544
59	0xbf46a9cc	-0.7760284
60	0xbf46b33d	-0.77617246
61	0xbee4ec4d	-0.44711533
62	0xbf6826b4	-0.90684056
63	0x3f739e45	0.95163375
64	0x3f91c456	1.1388042
65	0xbfb127e5	-1.38403
66	0xbe68d52e	-0.22737572
67	0xbed1f307	-0.41005728
68	0x3fc7566a	1.5573246
69	0x3ddfaf08	0.109220564
70	0x3eecc61d	0.46244898
71	0x3f97491a	1.1819184
72	0xbe688e3f	-0.22710513
73	0x3ebfc3a4	0.3745395
74	0x3edd9068	0.43274236
75	0x3eaf1504	0.3419572
76	0x3deda809	0.11604316
77	0x3fb9a2ef	1.4502848
78	0x3e27f5f3	0.16402416
79	0xbeb8290e	-0.35968822
80	0x3f9301f4	1.1484971
81	0xbfdf4c75	-1.7445208
82	0xbf6bf7f4	-0.9217522
83	0xbf1c2cdf	-0.6100597
84	0xbf825ef7	-1.0185231
85	0x3fd06532	1.6280882
86	0xbf05780a	-0.5213629
87	0x3f773d62	0.9657804
88	0x3d2a0f8f	0.041518744
89	0xbe7d1ebd	-0.24718757
90	0x3d37212c	0.04470937
91	0x3f6ad74d	0.9173477
92	0xbf08f913	-0.5350506
93	0xbf5ced5b	-0.86299676
94	0xbf1e4ec3	-0.6183893
95	0xbf8d4533	-1.1036743
96	0x3f2f002c	0.6835964
97	0xbf210318	-0.62895346
98	0xbef76281	-0.4831734
99	0xbeb03ddf	-0.34422204
100	0xbff84308	-1.9395456
101	0xbdba8a37	-0.09108394
102	0xbf89eb4b	-1.0774931
103	0xbf176df0	-0.59152126
104	0x3f8927ec	1.0715308
105	0xbf188277	-0.59574074
106	0xbfa95ec6	-1.3232048
107	0x3f086f75	0.5329507
108	0x3d2a4954	0.041573837
109	0xbef2a243	-0.4738942
110	0x3f813869	1.009534
111	0xbf52f7ba	-0.8240925
112	0x3fb1cf57	1.38914
113	0xbf5b0a86	-0.8556293
114	0xbf1b9b8c	-0.6078422
115	0xbfc7026e	-1.5547616
116	0x3f3728ca	0.71546614
117	0xbfa59903	-1.293732
118	0x3fb03a0c	1.3767715
119	0x3f4e8c93	0.8068325
120	0x3ffe7126	1.987828
121	0xbfa0ac7c	-1.2552638
122	0xbf25cb14	-0.64763
123	0xbf203335	-0.62578136
124	0xbf4ece9e	-0.8078402
125	0xbf61f7a0	-0.8826847
126	0xbfba785b	-1.456798
127	0xbf848be6	-1.0355194

disc.4.weight f4 [64, 128]
0	0xbe31d7ea	-0.17367521
1	0xbdf89589	-0.121378966
2	0xbcc52154	-0.024063744
3	0xbe3b4cfd	-0.18291087
4	0x3e1f1f54	0.15539294
5	0xbdeab1e6	-0.11459713
6	0x3e411507	0.18855678
7	0xbec19c41	-0.37814525
8	0xbe115487	-0.14192401
9	0xbe72725c	-0.23676437
10	0xbe250527	-0.16115247
11	0xbd9b6e79	-0.0758943
12	0x3dd66ae2	0.10469605
13	0xbdc7e4d9	-0.09760446
14	0x3ddbc75b	0.107313834
15	0x3d29adb4	0.04142542
16	0x3d2673f6	0.040637933
17	0xbeaf4cd1	-0.34238294
18	0x3e5f6c1c	0.21818584
19	0x3e5a73c6	0.21333227
20	0xbeb672d6	-0.35634488
21	0xbebcf156	-0.36902875
22	0xbdfc6eaa	-0.12325795
23	0xbe4e9e71	-0.20177628
24	0xbc944938	-0.01810132
25	0x3d7c3e30	0.061582744
26	0x3e40a321	0.18812229
27	0x3d168ec2	0.03675724
28	0xbcac5b6f	-0.021039693
29	0xbe4e6c29	-0.20158447
30	0x3e20eb2f	0.15714715
31	0xbe6082a1	-0.21924831
32	0x3e85313d	0.26014128
33	0x3da9654c	0.08271274
34	0x3d01ca45	0.03168704
35	0xbdb43889	-0.08799846
36	0x3c1ca69f	0.00956121
37	0xbe352461	-0.17689659
38	0xbe0915c8	-0.13387215
39	0xbe4b3b39	-0.1984681
40	0x3dae9ec5	0.08526377
41	0xbc04c180	-0.008102775
42	0xbe45f6fb	-0.19332497
43	0x3e55c207	0.20874797
44	0x3e9642c5	0.29347816
45	0x3e47048d	0.1943533
46	0xbd99ec04	-0.075157195
47	0xbe1c8bd2	-0.15287712
48	0x3c9af8f1	0.018917533
49	0x3e808528	0.2510159
50	0x3d6e6ce2	0.058209307
51	0xbec32620	-0.38115025
52	0xbdccad8b	-0.09994038
53	0xbd34466a	-0.044012465
54	0xbec7e020	-0.3903818
55	0xbbeb76e3	-0.0071858033
56	0x3e82e28d	0.2556347
57	0x3e7740e7	0.24145852
58	0xbdf51c15	-0.11968247
59	0x3e2f7c27	0.17137204
60	0x3e46a6a7	0.1939951
61	0xbd4d3a55	-0.050104458
62	0x3e390baf	0.18070863
63	0xbe7b22e4	-0.24525028
64	0x3dc6c1b0	0.09704912
65	0xbe8daf85	-0.27672973
66	0x3e954e81	0.29161456
67	0xbe284cc3	-0.16435532
68	0x3e4f9c8a	0.20274559
69	0xbe20bd02	-0.15697101
70	0xbe503e7c	-0.20336336
71	0xbe85206c	-0.26001298
72	0xbedcbc8c	-0.431126
73	0xbe361cf5	-0.17784484
74	0xbe166256	-0.1468595
75	0xbe476dee	-0.19475529
76	0x3e4262b3	0.18982963
77	0x3b9ec5d3	0.00484536
78	0xbe9ff256	-0.31239575
79	0x3e8f5b0c	0.2799915
80	0x3e2df77d	0.1698894
81	0xbd8b74f0	-0.068094134
82	0x3e9a180a	0.30096465
83	0x3db26c37	0.087120466
84	0x3dec64d9	0.11542673
85	0xbdd80ec5	-0.10549692
86	0x3e074703	0.13210683
87	0xbde889a8	-0.11354381
88	0x3e2e15e9	0.17000546
89	0xbe8c452d	-0.27396527
90	0x3e177556	0.14790854
91	0xbe28b65e	-0.16475818
92	0x3be24240	0.0069048703
93	0xbdcbcce4	-0.09951189
94	0x3d570f07	0.052504566
95	0x3cc68274	0.024232127
96	0x3d37cb3a	0.044871546
97	0xbe9e2dcc	-0.30894315
98	0xbd7e711d	-0.062119592
99	0x3e20d8d1	0.15707709
100	0x3dad1b79	0.084525056
101	0x3e2a8d6d	0.16655512
102	0xbe295510	-0.16536355
103	0xbe262ee6	-0.16228828
104	0x3d2981e7	0.04138365
105	0x3eaade73	0.3337284
106	0x3ea26130	0.31714773
107	0x3da126cc	0.07868728
108	0xbe9d056b	-0.30668196
109	0xbe3653dc	-0.17805427
110	0xbd2212b9	-0.039568637
111	0xbe787e74	-0.24266988
112	0xbdf31731	-0.11869658
113	0xbd5b3bc9	-0.053523812
114	0xbda571d7	-0.08078354
115	0x3d35938c	0.044330165
116	0xbec89035	-0.3917252
117	0xbd689b1e	-0.056788556
118	0xbe078308	-0.13233578
119	0x3ce8e562	0.02842969
120	0xbe345b0f	-0.17612861
121	0xbdc8946a	-0.09793933
122	0x3e2097b4	0.1568287
123	0xbdbabf7f	-0.09118556
124	0x3d5d9ac7	0.054102685
125	0xbe71678b	-0.23574655
126	0xbc7c8c38	-0.01541429
127	0x3dec2c44	0.115318805
128	0x3eb43c45	0.35202232
129	0xbdd57335	-0.104223646
130	0xbe35dffd	-0.17761226
131	0xbe3ba83f	-0.183259
132	0x3d7f5f3a	0.062346675
133	0xbdb144fb	-0.08655735
134	0x3dc255b6	0.09489004
135	0x3e8375c9	0.256758
136	0xbdde6d0f	-0.10860645
137	0x3cde72d5	0.027154366
138	0x3d3f49fe	0.046701424
139	0x3efca6d7	0.4934604
140	0x3d2baaa8	0.041910797
141	0xbe1128b3	-0.14175682
142	0x3dedf8d9	0.116197295
143	0x3d6bd43c	0.05757545
144	0x3d59bb8d	0.053157378
145	0x3d4d3d6c	0.050107405
146	0x3ddad054	0.10684267
147	0xbd9ceb0d	-0.0766202
148	0x3e802f56	0.25036114
149	0x3e7afeeb	0.24511306
150	0xbc94e8fb	-0.0181775
151	0xbe584be2	-0.21122697
152	0x3c48daf8	0.0122592375
153	0x3e91318f	0.28358123
154	0x3d4330ed	0.04765408
155	0xbb3e3776	-0.0029024757
156	0xbccfdd39	-0.025374042
157	0x3e666fbe	0.22503564
158	0xbe81af49	-0.25329044
159	0x3e7ebe14	0.24877197
160	0xbd02353a	-0.031789042
161	0x3dfdb453	0.1238791
162	0xbd4cf30f	-0.050036486
163	0x3be3c780	0.0069512725
164	0xbe9312e6	-0.28725356
165	0x3e8098be	0.25116533
166	0xbe06f4c4	-0.13179308
167	0xbeb60f92	-0.35558754
168	0xbd4000c4	-0.04687573
169	0x3e4697fd	0.19393916
170	0x3e72daad	0.2371623
171	0x3e95fed3	0.29295978
172	0xbe3d578d	-0.18490429
173	0x3e112898	0.14175642
174	0xbd7bda1b	-0.0614873
175	0xbe2151a3	-0.15753798
176	0xbdc70be4	-0.09719065
177	0x3e83a8dd	0.2571477
178	0xbe50b129	-0.20380081
179	0xbe8280e2	-0.25488955
180	0xbd678a94	-0.056528643
181	0x3c05b8b5	0.008161713
182	0x3d4642ff	0.048403736
183	0x3e2bfe2b	0.16796176
184	0x3cf6f8b3	0.030147886
185	0xbe22210e	-0.15832922
186	0x3e175b2e	0.14780876
187	0xbce1984e	-0.027538445
188	0xbd0ef61d	-0.03490268
189	0x3d62c470	0.05536312
190	0x3e98c536	0.2983796
191	0xbe897e07	-0.26853964
192	0x3e5c109c	0.21490711
193	0xbe0c8296	-0.1372169
194	0xbdcaa3ed	-0.098945476
195	0xbe1453eb	-0.14485137
196	0x3dce092e	0.10060345
197	0xbe7a0fc6	-0.2442008
198	0x3e256ae5	0.16154058
199	0xbe399b99	-0.18125762
200	0x3d874b7b	0.06606194
201	0xbe4ca660	-0.19985342
202	0xbdccdaff	-0.10002708
203	0xbda27ad4	-0.07933584
204	0x3dd2ae1b	0.10287114
205	0x3e891b3c	0.2677859
206	0x3d1f180f	0.038841303
207	0xbe013d03	-0.1262093
208	0x3e897127	0.2684414
209	0xbe041371	-0.12898041
210	0xbb2e69c6	-0.002661334
211	0xbdc5afc6	-0.09652667
212	0xbde82b1b	-0.11336347
213	0x3dcab876	0.098984644
214	0x3da4e157	0.08050793
215	0xbe620186	-0.22070894
216	0xbf0b83a0	-0.5449772
217	0xbe8ac961	-0.27106765
218	0x3d1f04db	0.03882299
219	0x3e58403c	0.21118253
220	0xbdc0dd29	-0.09417183
221	0xbe78c8e8	-0.2429539
222	0x3d9c54b8	0.07633346
223	0x3e83e335	0.25759283
224	0x3d86166a	0.06547244
225	0x3e6f0806	0.23342904
226	0xbe813fe4	-0.25244057
227	0xbe4ccecd	-0.20000763
228	0xbee66c3b	-0.45004448
229	0xbe3e27d0	-0.18569875
230	0xbd4061f9	-0.046968434
231	0xbd7d1859	-0.061790798
232	0xbd68ec7e	-0.05686616
233	0x3dc6d97c	0.097094506
234	0x3d94d447	0.07267051
235	0xbf19ea06	-0.60122716
236	0x3e480568	0.19533312
237	0xbd96f631	-0.07371176
238	0x3bd5776f	0.0065144817
239	0xbde06a9f	-0.10957836
240	0xbca04e24	-0.01956851
241	0x3e2c18db	0.16806357
242	0xbacf54bf	-0.0015818103
243	0x3e110596	0.14162287
244	0xbe88dcdf	-0.2673101
245	0x3e492bec	0.19645661
246	0x3e009796	0.12557825
247	0x3d27a958	0.040932983
248	0xbd3b4c27	-0.04572692
249	0xbd166031	-0.03671283
250	0x3caf7fdd	0.021423275
251	0x3e370f81	0.17877008
252	0xbe275abb	-0.16343205
253	0xbea1da13	-0.3161169
254	0xbdd1ed93	-0.10250392
255	0xbbb89a84	-0.005633654

disc.4.bias f4 [64]
0	0xbfed01ed	-1.8516213
1	0xbf79383f	-0.9735145
2	0xbfbbe895	-1.4680353
3	0xbfb313c3	-1.3990406
4	0xbfe4243a	-1.7823555
5	0x3f16f3bb	0.58965653
6	0xbf895c5f	-1.0731314
7	0xbfa664e4	-1.2999539
8	0x3f5f7522	0.87288105
9	0x3f9598aa	1.1687214
10	0x3fdc100e	1.71924
11	0x3fe4cd53	1.787516
12	0x3fb7cfb2	1.4360259
13	0x3f84dcbf	1.0379866
14	0xbf30bd88	-0.690392
15	0x3f85a73e	1.0441663
16	0xbf5b24ff	-0.85603327
17	0xbfbf1b0e	-1.4930131
18	0x3fa1e344	1.2647481
19	0xbffa8828	-1.9572802
20	0x3fa8fc53	1.3202003
21	0x3fb040f4	1.3769822
22	0xbf004c94	-0.5011685
23	0xbf8a974b	-1.0827421
24	0x3f8a2e56	1.0795391
25	0x3f9aae35	1.2084414
26	0xbfd8ef7d	-1.6948086
27	0x3f9d08f7	1.2268361
28	0x3f75c420	0.9600239
29	0xbfa2a1c9	-1.2705623
30	0xbf808b30	-1.0042477
31	0xbfa07390	-1.2535267
32	0x3fa04cc8	1.2523432
33	0x3fe39b46	1.7781761
34	0xc00009bd	-2.0005944
35	0xbfc5ad6a	-1.5443547
36	0xbff7c74f	-1.9357699
37	0xbff67085	-1.9253088
38	0xc001d434	-2.0285769
39	0x3fcffb14	1.6248498
40	0xbfecea8d	-1.8509079
41	0xbf59522e	-0.8489102
42	0xbfd9dc00	-1.7020264
43	0x3f9f925b	1.2466539
44	0xbfd43425	-1.6578413
45	0xc00204d9	-2.0315459
46	0xbfe7536a	-1.8072331
47	0x3fbcfaa6	1.4763992
48	0xbf747bac	-0.9550121
49	0x3f802c4e	1.0013521
50	0x3f8d6791	1.1047231
51	0xbf5f498e	-0.8722161
52	0xbf986a11	-1.1907369
53	0xbfd3abd6	-1.6536815
54	0x3f7bc74a	0.98350966
55	0xbffa7edb	-1.9569963
56	0x3f972598	1.1808348
57	0xc003d01b	-2.0595767
58	0x3f266492	0.6499721
59	0xbfa6f56e	-1.3043649
60	0xbf5624e4	-0.8365004
61	0xc00773aa	-2.1164346
62	0x3f64d127	0.8938164
63	0xbfd55b8b	-1.6668562

disc.6.weight f4 [1, 64]
0	0x3d8877a2	0.06663443
1	0x3db1078b	0.08644017
2	0x3d765a9c	0.060145006
3	0x3d36202c	0.044464275
4	0x3cce7097	0.025200171
5	0xbd2288c6	-0.03968122
6	0x3d613b1b	0.054988008
7	0x3d9801f3	0.07422247
8	0xbd8572b9	-0.06516022
9	0xbd60fde2	-0.05492962
10	0xbd4fcb8f	-0.050731238
11	0xbd4e4d87	-0.050366905
12	0xbd4247ac	-0.047431633
13	0xbd5637dc	-0.052299365
14	0x3d62bdc1	0.055356745
15	0xbd22a37b	-0.03970669
16	0x3d5de34a	0.054171838
17	0x3d117e26	0.035520695
18	0xbd66f2d0	-0.056383908
19	0x3cfe6ad4	0.031056799
20	0xbd403518	-0.046925634
21	0xbdb13256	-0.08652179
22	0x3d8d2564	0.06891897
23	0x3dbb7f1d	0.09155104
24	0xbd577e08	-0.052610427
25	0xbd4886e3	-0.048956763
26	0x3d25e08e	0.040497355
27	0xbd2534eb	-0.04033367
28	0xbd72ceb6	-0.059279166
29	0x3d951384	0.07279113
30	0x3d56b7b7	0.052421298
31	0x3d7f6a5a	0.062357284
32	0xbd8dd0ee	-0.06924616
33	0xbda378c3	-0.07982018
34	0x3d6357cf	0.055503663
35	0x3da777bc	0.081771344
36	0x3d55f892	0.05223901
37	0x3d20e755	0.039283115
38	0x3d752f43	0.059859525
39	0xbd7408eb	-0.059578817
40	0x3d23303f	0.039840933
41	0x3d76afb7	0.06022617
42	0x3d5b2588	0.05350259
43	0xbd9be06d	-0.07611165
44	0x3dc594a8	0.096474946
45	0x3d3dbf67	0.046325114
46	0x3d539ee4	0.0516652
47	0xbd5b71e3	-0.053575408
48	0x3d564f74	0.052321866
49	0xbd787e88	-0.060667545
50	0xbd44034c	-0.047854707
51	0x3d73088a	0.059334315
52	0x3d4aaa1f	0.049478646
53	0x3d80d8eb	0.06291374
54	0xbd827d01	-0.06371499
55	0x3d326572	0.043553777
56	0xbd7c57d7	-0.061607208
57	0x3d3590b8	0.044327468
58	0xbd8f7024	-0.07003811
59	0x3d9915c2	0.07474853
60	0x3d2a48d3	0.041573357
61	0x3d08fca1	0.03344405
62	0xbd848158	-0.06469983
63	0x3d20e98a	0.03928522
